lane_unet.pth (torch, 759178 bytes, 31 tensors)

e1.0.weight f4 [32, 3, 3, 3]
0	0xbdf1ea65	-0.11812285
1	0xbe2a9b90	-0.16660905
2	0x3a46fcb8	0.00075907586
3	0x3cf55ec3	0.029952412
4	0xbdef72b9	-0.116918035
5	0xbe1b8fe0	-0.15191603
6	0x3d3546a9	0.04425684
7	0xbe3ba4dc	-0.18324608
8	0x3d071c45	0.032985944
9	0x3d74394c	0.059624955
10	0x3dccd794	0.10002056
11	0xbe24098e	-0.1601927
12	0xbcfa93ae	-0.030587997
13	0x3d5980ca	0.05310134
14	0xbdf20776	-0.11817829
15	0xbdee4ad3	-0.11635365
16	0xbc3f6707	-0.0116822785
17	0xbb23c21e	-0.002498753
18	0x3e09675e	0.13418338
19	0xbc1771c0	-0.009243429
20	0x3d9f3c80	0.07775211
21	0x3d344360	0.044009566
22	0x3e4b8c1d	0.19877668
23	0x3e2ff4e9	0.1718327
24	0x3e4e718f	0.20160507
25	0x3dd4f628	0.10398513
26	0x3e1db54e	0.15401193
27	0xbd0ba387	-0.0340915
28	0xbe2b44f3	-0.16725521
29	0xbc3d8001	-0.011566163
30	0xbd9b7ef0	-0.07592571
31	0x3e0a2fa9	0.13494743
32	0x3e9e017d	0.3086051
33	0x3e03298c	0.12808818
34	0x3e567782	0.20944026
35	0x3e84c27e	0.25929636
36	0xbd4f5e0f	-0.05062681
37	0xba438f2e	-0.0007459995
38	0x3dcf4e17	0.10122316
39	0xbb3153cf	-0.002705801
40	0x3dbbd6cd	0.091718294
41	0x3e327936	0.17429051
42	0x3d906ee4	0.07052401
43	0xbce8fcc8	-0.028440848
44	0xbdcc69f7	-0.09981149
45	0x3d2eeae7	0.04270449
46	0xbd084fdc	-0.033279285
47	0xbd70156e	-0.058614187
48	0x3d37a9b3	0.044839572
49	0x3e05cbd2	0.13066033
50	0x3e073a2b	0.13205783
51	0x3db8c359	0.090216346
52	0x3d129bb4	0.03579302
53	0xbd27dbf0	-0.040981233
54	0x3c369e1d	0.011146096
55	0xbe426d24	-0.18986946
56	0xbd20d32f	-0.0392639
57	0xbdfb073f	-0.122572415
58	0x3e0c2183	0.13684659
59	0x3d4551ea	0.048173822
60	0x3e56e9a4	0.20987564
61	0xbe0fea63	-0.14054255
62	0xbe72ba41	-0.23703863
63	0xbe16d9ba	-0.14731494
64	0x3de5e445	0.112251796
65	0xbe01d83d	-0.12680145
66	0x3cb46c74	0.02202437
67	0x3dd69e00	0.10479355
68	0x3e05cf7d	0.13067432
69	0x3e4c5fa1	0.19958355
70	0xbd678183	-0.056519996
71	0xbe4a23e7	-0.19740258
72	0x3da39a69	0.07988436
73	0x3dbb4a00	0.09144974
74	0x3def5d61	0.116877325
75	0xbe485a99	-0.1956581
76	0x3e114730	0.14187312
77	0xbe3f8960	-0.18704748
78	0x3e06354c	0.13106269
79	0x3c8918ca	0.016735453
80	0x3d671fd3	0.056426834
81	0xbd99e6f7	-0.07514756
82	0xbd42c556	-0.047551475
83	0x3d9edc89	0.077569075
84	0xbdcb951f	-0.09940552
85	0x3daa752e	0.083231315
86	0xbd1d280c	-0.03836827
87	0xbe3c1ca3	-0.18370299
88	0x3daf6195	0.08563534
89	0xbc00d6e1	-0.007863731
90	0x3c39bfd4	0.011337239
91	0x3a3564ee	0.0006919642
92	0x3da23725	0.07920674
93	0xbdbb58cb	-0.09147795
94	0x3e32bd75	0.17455085
95	0x3e93ff1d	0.28905573
96	0x3e91a38f	0.28445098
97	0x3dba6bc4	0.09102586
98	0xbd98e066	-0.074646756
99	0x3d3e9a7a	0.04653404
100	0xbd923749	-0.07139451
101	0xbdd749b6	-0.10512106
102	0xbdb20e43	-0.086941265
103	0x3d4aa324	0.04947199
104	0x3d4a2c49	0.04935864
105	0xbd08c780	-0.033393383
106	0x3cece391	0.028917106
107	0xbe8b699a	-0.27229005
108	0x3e81b590	0.25333834
109	0x3ded7e07	0.115963034
110	0x3e5b98c3	0.21444993
111	0xbe551d81	-0.20812036
112	0xbd478e65	-0.048719782
113	0x3d022a2c	0.0317785
114	0x3de7f5b2	0.113261595
115	0x3d1212fc	0.035662636
116	0xbe05cf2c	-0.13067311
117	0x3e431785	0.1905194
118	0xbdfa1a3a	-0.122120336
119	0x3e130a1f	0.1435933
120	0x3dd7d10f	0.10537922
121	0xbc2358ba	-0.0099698845
122	0x3e2ff686	0.17183885
123	0xbd3d274e	-0.046180062
124	0x3d90c6a7	0.0706914
125	0xbd5c40a4	-0.053772584
126	0xbe728e89	-0.23687185
127	0xbe208f62	-0.15679696
128	0xbeae56e2	-0.3405066
129	0x3df57713	0.11985602
130	0x3e313468	0.17305148
131	0x3d5da5c5	0.05411317
132	0x3d6b584c	0.057457253
133	0xbc829dc0	-0.015944362
134	0xbda4195b	-0.08012649
135	0xbdb6b0a9	-0.08920414
136	0xbda7567f	-0.08170795
137	0x3d4df7ef	0.050285276
138	0xbe3f1250	-0.1865933
139	0x3e0986de	0.13430354
140	0xbd2f04f4	-0.042729333
141	0xbe79e33c	-0.2440309
142	0xbe3a6809	-0.18203749
143	0xbdec926a	-0.11551364
144	0xbd7f931c	-0.062396154
145	0x3e1a3ee2	0.1506305
146	0xbcf42c48	-0.029806271
147	0xbc92fa49	-0.01794161
148	0x3d690f3e	0.0568993
149	0x3db4a732	0.088209525
150	0x3d61801b	0.05505381
151	0xbdb16a57	-0.08662861
152	0x3d280781	0.04102278
153	0x3d34b288	0.044115573
154	0x3e1b1a5d	0.15146776
155	0x3d45ce20	0.04829228
156	0x3d12c7e5	0.035835166
157	0x3e3e8f7b	0.18609421
158	0x3e56273e	0.20913407
159	0x3bf4c7cb	0.0074701062
160	0xbbef5851	-0.0073042293
161	0xbe07bd65	-0.13255842
162	0x3b0d1f32	0.0021533486
163	0x3c4a1830	0.012334868
164	0x3d50ca7c	0.050974354
165	0x3c856bdb	0.016286781
166	0xbc920623	-0.017825192
167	0xbe03310f	-0.12811683
168	0xbe36c8a5	-0.17849977
169	0xbe0e8b2e	-0.1392028
170	0xbd2a8067	-0.04162636
171	0xbe0be6b1	-0.1366222
172	0x3da64681	0.08118916
173	0x3de0deaf	0.109799735
174	0xbe5f9132	-0.21832731
175	0x3e00f258	0.12592447
176	0xbd6cd33e	-0.057818644
177	0xbd01bf90	-0.03167683
178	0xbc9c8af5	-0.019109229
179	0xbe2c333c	-0.1681642
180	0x3db68dd0	0.08913767
181	0x3e58db9f	0.21177529
182	0xbac18132	-0.0014763235
183	0xbe08458f	-0.13307784
184	0xbd2b7444	-0.041858926
185	0xbc93707e	-0.017997976
186	0xbe103431	-0.1408241
187	0x3e19cc33	0.15019302
188	0x3e25da69	0.16196598
189	0x3e2e6313	0.17029981
190	0x3e3cbd71	0.18431641
191	0x3d59340a	0.053028144
192	0x3d720931	0.059090797
193	0xbe139601	-0.1441269
194	0xbe06ecd7	-0.13176285
195	0xbe2f69e0	-0.17130232
196	0x3d8d0032	0.06884803
197	0xbe27ec94	-0.16398841
198	0x3de2a59e	0.11066745
199	0xbcee184c	-0.02906432
200	0x3e160f12	0.14654186
201	0x3db482b0	0.08813989
202	0xbd93ed25	-0.07222966
203	0xbe176985	-0.14786346
204	0xbc92fd8d	-0.017943168
205	0xbe2c6f36	-0.16839299
206	0x3e0344d1	0.1281922
207	0x3abbb834	0.0014321865
208	0xbd408c0b	-0.047008555
209	0x3e0411e8	0.12897456
210	0x3d666387	0.05624726
211	0xbd8cc0a2	-0.06872679
212	0x3d2d3b15	0.042292673
213	0xbda45292	-0.080235615
214	0xbdc3ff91	-0.0957023
215	0x3d561303	0.052264225
216	0xbd60e0ff	-0.054902073
217	0x3da1431a	0.07874127
218	0xbda5ecc8	-0.08101803
219	0x3e6e71cc	0.23285598
220	0xbe7bdb65	-0.24595411
221	0x3d1e7f4d	0.038695622
222	0x3ea4d512	0.3219381
223	0x3e261da0	0.16222239
224	0xbbc3d752	-0.005976596
225	0x3d0181c5	0.0316179
226	0x3d93b467	0.072121434
227	0xbe687876	-0.22702202
228	0x3e01e139	0.12683572
229	0xbc23e0cf	-0.010002329
230	0xbd5bf085	-0.053696174
231	0x3db7dc5d	0.08977578
232	0x3cccc5de	0.024996694
233	0xbbacc573	-0.005272561
234	0x3cf6df67	0.030135823
235	0xbd2cd54d	-0.042195607
236	0x3c8dcc73	0.017309403
237	0xbe692f0c	-0.22771853
238	0x3d9a9b3a	0.07549138
239	0xbddf4629	-0.10902054
240	0xbc7c3f2c	-0.015395921
241	0x3d926b13	0.07149329
242	0xbe5e8edd	-0.21734186
243	0x3adb1783	0.0016715381
244	0xbe328090	-0.17431855
245	0xbced7a83	-0.028989082
246	0x3e36b564	0.17842633
247	0xbc37ceef	-0.01121877
248	0x3d17e4c9	0.03708342
249	0xbd298983	-0.041390907
250	0xbdaeb151	-0.08529914
251	0xbe70eea8	-0.2352854
252	0xbd49b7d7	-0.04924759
253	0xbb97509f	-0.004617765
254	0x3b00d8ea	0.001966054
255	0xbdbd8a63	-0.09254911

e1.0.bias f4 [32]
0	0xbc131cd1	-0.008979038
1	0xbd1ab8d8	-0.037773937
2	0xbd96d993	-0.07365718
3	0xbd2547f1	-0.04035181
4	0x3caf1a1e	0.021374758
5	0xbd1c25b1	-0.038121883
6	0x3d53e0cf	0.051728066
7	0xbceed8a9	-0.029156046
8	0x3d0ee61d	0.034887422
9	0x3ddb8c8e	0.10720168
10	0x3d081e95	0.03323229
11	0x3e45dc1e	0.1932225
12	0xbe251432	-0.16120985
13	0xbe279ebf	-0.1636915
14	0xbcfdf0c3	-0.030998593
15	0x3deddcda	0.1161439
16	0x3d4b96d2	0.04970438
17	0x3c3a1c19	0.011359238
18	0x3dcf8901	0.10133553
19	0x3c9b64fd	0.018969053
20	0xb9713742	-0.00023004136
21	0xbdfec50d	-0.12439928
22	0x3d61b9bc	0.05510877
23	0xbe403d2b	-0.18773334
24	0x3d5110d9	0.051041458
25	0x3cfe8d9d	0.031073386
26	0xbdd30a48	-0.10304695
27	0x3e81175c	0.25213134
28	0xbe280459	-0.16407908
29	0xbdd04e00	-0.10171127
30	0x3da014eb	0.0781649
31	0x3e4c3c9f	0.19945

e1.1.weight f4 [32]
0	0x3f32e64d	0.6988266
1	0x3f4b172f	0.7933225
2	0x3f789c41	0.97113425
3	0x3f4a9c21	0.79144484
4	0x3f44b300	0.7683563
5	0x3f668d67	0.9005951
6	0x3f6145c9	0.8799711
7	0x3f82e4e5	1.0226103
8	0x3f69896c	0.91225314
9	0x3f6606be	0.8985404
10	0x3f7ab515	0.9793256
11	0x3f9c18d0	1.2195072
12	0x3f712d1d	0.9420946
13	0x3f7fa161	0.9985562
14	0x3f8ff254	1.1245828
15	0x3f8639d0	1.0486393
16	0x3f748026	0.9550804
17	0x3f4ca56c	0.79939914
18	0x3f88f676	1.0700214
19	0x3f7c45a6	0.98543775
20	0x3f92cff7	1.1469716
21	0x3f6d8cbc	0.9279287
22	0x3f8015b1	1.000662
23	0x3f88d9ec	1.0691504
24	0x3f96f52b	1.1793569
25	0x3f70dc25	0.94085914
26	0x3f611fb5	0.87939006
27	0x3f723ae8	0.94621134
28	0x3f6c478a	0.9229666
29	0x3f9e554f	1.2369784
30	0x3f84ab4c	1.0364776
31	0x3f7cbcdc	0.98725677

e1.1.bias f4 [32]
0	0x3d72f90f	0.059319552
1	0xbc2eae1f	-0.010661631
2	0x3db66ee1	0.08907867
3	0xbdd07538	-0.10178608
4	0xbd9c2c72	-0.07625665
5	0x3e3bdc0f	0.18345664
6	0xbe2b5ff9	-0.1673583
7	0x3dbf9761	0.09355045
8	0xbe03940c	-0.12849444
9	0xbdf35ab1	-0.118825324
10	0xbc94b15e	-0.018150982
11	0x3d3b3c0d	0.045711566
12	0xbe048c03	-0.12944035
13	0xbda3b7cc	-0.07994041
14	0x3e9f136c	0.31069505
15	0x3ea0934a	0.31362373
16	0x3d62479d	0.055244077
17	0xbda0b13a	-0.07846303
18	0x3dfe2e38	0.12411159
19	0xbd9733d4	-0.07382932
20	0x3dd26400	0.1027298
21	0x3de6c502	0.11268045
22	0x3d9d23d9	0.07672853
23	0x3dad494f	0.08461248
24	0x3e14b009	0.14520277
25	0xbde18ab0	-0.11012781
26	0xbe09b484	-0.13447767
27	0xbe2e37f7	-0.17013536
28	0x3df8874e	0.12135182
29	0x3c04d1ca	0.008106658
30	0x3dcaebeb	0.09908279
31	0xbe2dd395	-0.16975243

e1.1.running_mean f4 [32]
0	0x3db8ae14	0.09017578
1	0x3f1a2ad4	0.602216
2	0xbd9f1cd7	-0.07769173
3	0x3d22c6b4	0.03974028
4	0x3e5f61a8	0.21814597
5	0xbd1a8919	-0.037728403
6	0xbe2e36c1	-0.17013074
7	0xbd6b043a	-0.057377078
8	0x3db7888f	0.08961593
9	0x3bd9194c	0.00662533
10	0x3b4f661e	0.003164656
11	0x3e40dd2a	0.18834367
12	0xbe8055ea	-0.25065547
13	0xbe42b934	-0.19015962
14	0xbcb96852	-0.022632752
15	0x3dd99a4c	0.10625133
16	0x3c5521dd	0.013008562
17	0x3d2cff46	0.042235635
18	0x3ddd9de6	0.10821132
19	0xb9cfe47c	-0.0003965235
20	0x3c2f598e	0.010702504
21	0xbe115317	-0.14191853
22	0x3d8f842c	0.07007632
23	0xbe578165	-0.21045454
24	0x3cf806e3	0.030276721
25	0x3db2d302	0.08731653
26	0xbea2273b	-0.31670555
27	0x3e5a71b2	0.21332434
28	0xbe0d622c	-0.13806981
29	0xbdc0c282	-0.094120994
30	0x3cf6ae55	0.030112425
31	0xbdd7ad82	-0.10531141

e1.1.running_var f4 [32]
0	0x3c2ca3ed	0.01053713
1	0x3df694a5	0.120400704
2	0x3aa1d9a4	0.0012348187
3	0x3b1dacc4	0.0024059275
4	0x3c1bc03f	0.009506284
5	0x3bce3754	0.0062932167
6	0x3c92b2bc	0.017907493
7	0x3c1d6455	0.009606441
8	0x3b97f0eb	0.004636874
9	0x3b95e1d6	0.004574041
10	0x3b17aa16	0.002314215
11	0x3ae57e8a	0.0017509025
12	0x3bc93e4c	0.0061414596
13	0x3b68abd9	0.003550282
14	0x3c121991	0.008917228
15	0x3adea7bc	0.0016987245
16	0x3c823cf4	0.015898205
17	0x3b16c00a	0.0023002648
18	0x3b00f315	0.0019676138
19	0x3aaf590c	0.0013377978
20	0x39d78d12	0.000411131
21	0x3b7de093	0.0038738593
22	0x3b3f61b6	0.0029202527
23	0x3aadd187	0.0013261297
24	0x3aa7c736	0.0012800458
25	0x3bd94dbd	0.0066315816
26	0x3c9f1fda	0.019424368
27	0x3b50790e	0.0031810435
28	0x3c1c4221	0.009537251
29	0x39dd735a	0.00042238348
30	0x3b80cfe1	0.003931031
31	0x3d0107f2	0.031501718

e2.0.weight f4 [64, 32, 3, 3]
0	0x3d67e802	0.056617744
1	0x3bc1d909	0.005915765
2	0xbc113b3f	-0.008864223
3	0x3d180ceb	0.037121695
4	0xbc15b722	-0.009137901
5	0xbd70ffc6	-0.058837675
6	0x3d0544bb	0.03253625
7	0x3d5100da	0.051026203
8	0xbc03c002	-0.008041384
9	0x3d39f5a0	0.045400262
10	0x3c3f8d95	0.011691471
11	0xbd015416	-0.03157433
12	0x3d597cdc	0.05309759
13	0x3c995783	0.018718487
14	0x3d54999b	0.051904302
15	0x3cd49b18	0.02595286
16	0xbca131d8	-0.019677088
17	0xbc88187d	-0.01661324
18	0x3c1be43e	0.009514866
19	0xbb42f0dd	-0.0029745616
20	0x3cb472c8	0.022027388
21	0x3d9f1fa0	0.07769704
22	0x3ce035e8	0.027369455
23	0x3bb72ae4	0.0055898298
24	0x3cc7c6ed	0.024386847
25	0xbd228161	-0.039674167
26	0x3bd28f32	0.0064257616
27	0x3d1e53a0	0.03865397
28	0xbc1b87fd	-0.009492871
29	0x3c2b2685	0.0104461955
30	0xbcfa037f	-0.030519245
31	0x3bdf5fe4	0.006816851
32	0x3cf73865	0.030178258
33	0x3d182343	0.037143003
34	0x3c907167	0.0176322
35	0x3d8c507b	0.06851288
36	0x3c08d754	0.0083521195
37	0xbd72fedf	-0.059325095
38	0x3adfb0ae	0.0017066204
39	0xbd33c1da	-0.043886043
40	0x3cdce042	0.026962403
41	0xbc966fc0	-0.018363833
42	0xbcbe5dd0	-0.023238093
43	0x3c2c4a0f	0.010515704
44	0x3d7a7530	0.061146915
45	0x3ccb60ad	0.024826372
46	0xbd6c5af8	-0.057703942
47	0xbd6b4f29	-0.05744854
48	0x3d773ea3	0.06036247
49	0xbc80034d	-0.015626574
50	0x3b9521f4	0.0045511667
51	0xbcc5f358	-0.024163887
52	0xbd25ceb6	-0.040480338
53	0xbd04bd2b	-0.032406967
54	0xbbe7fe89	-0.0070799035
55	0xbcf3290f	-0.029682664
56	0xbd665fb2	-0.056243606
57	0xbc35315d	-0.011059132
58	0xbd1cc254	-0.038271263
59	0x3d73314e	0.059373192
60	0xbd954a35	-0.072895445
61	0xbdab6198	-0.08368224
62	0xbd10127e	-0.035173886
63	0xbd1e7c1e	-0.038692586
64	0xbbaf5ebf	-0.005351871
65	0xbd7b0c41	-0.061290983
66	0xbdbf2f0a	-0.09335144
67	0xbde230d7	-0.11044472
68	0xbc0c4e9b	-0.008563663
69	0x3d42bf1f	0.04754555
70	0xbcc23ef8	-0.023711666
71	0xbc6c4bc3	-0.01442236
72	0x3d2be2a2	0.04196418
73	0xbd010a83	-0.031504165
74	0xbc861b24	-0.016370364
75	0x3ce5b8c4	0.028042205
76	0xba882220	-0.0010386147
77	0x3c73b9e9	0.014875867
78	0xbd9f2079	-0.077698655
79	0xbd029292	-0.03187806
80	0xbd875695	-0.06608311
81	0xbd322131	-0.043488685
82	0xbb88380b	-0.0041570715
83	0xbd2417cb	-0.040061753
84	0x3ce8c8dc	0.02841609
85	0xbcc87f37	-0.024474723
86	0x3da99c6a	0.08281787
87	0xbca29270	-0.019845217
88	0xbbf8eba8	-0.007596452
89	0x3d21db13	0.039515566
90	0x3d87dd39	0.06633992
91	0x3c4b2762	0.012399526
92	0x3c3368ed	0.010950309
93	0xbcdda42a	-0.027055819
94	0xbd368aa0	-0.044565797
95	0xbdca026a	-0.09863742
96	0x3da08ef9	0.0783977
97	0x3d1a4241	0.03766084
98	0x3d73d969	0.05953351
99	0xbcba6f30	-0.022758096
100	0xbd719ff9	-0.058990452
101	0xbba4d6b0	-0.0050304756
102	0x3d810577	0.062998705
103	0x3dc34f4a	0.095366076
104	0x3e093534	0.13399202
105	0xbcea6c9b	-0.02861624
106	0xbcb85d00	-0.022505283
107	0x3df45e78	0.11932081
108	0x3cc48e3f	0.02399361
109	0xbce4c040	-0.027923703
110	0x3c9b2d48	0.01894249
111	0x3d7876c6	0.060660146
112	0x3d2e36d1	0.042532746
113	0x3d193c56	0.037411056
114	0xbdbf618f	-0.0934478
115	0xbdbb822a	-0.09155686
116	0xbc00229f	-0.007820754
117	0x3d735e37	0.059416022
118	0x3d3a814d	0.045533467
119	0x3b82a93f	0.003987461
120	0x3c677cb5	0.014128854
121	0xbbde806a	-0.0067902105
122	0x3b8e476a	0.0043420093
123	0x3d95ef30	0.07321012
124	0x3c26870c	0.010164034
125	0x3aea1ebe	0.0017861945
126	0xbd240089	-0.040039573
127	0x3d4d95af	0.050191578
128	0x3cbe1241	0.023202064
129	0x3d02fc24	0.03197874
130	0xbd85ba26	-0.065296456
131	0xbd174a94	-0.036936358
132	0x3e330bea	0.17485014
133	0x3da1cd8e	0.079005346
134	0x3e181305	0.14851005
135	0x3ab90a2d	0.0014117413
136	0xbd5a0fe0	-0.053237796
137	0xbd951f28	-0.07281333
138	0x3e1f906a	0.15582433
139	0x3ddd2f36	0.108000204
140	0x3c4aa9db	0.012369598
141	0xbd14c585	-0.03632118
142	0xbd0331ed	-0.032030035
143	0x3b75d563	0.0037511222
144	0xbd631ca2	-0.05544723
145	0xbd7cacca	-0.061688222
146	0xbd4e6ec9	-0.05039862
147	0xbb93fc87	-0.0045161876
148	0x3cf8bedb	0.030364444
149	0xbcc03a09	-0.023465173
150	0x3c77e5f6	0.015130511
151	0xbd124693	-0.035711836
152	0xbcf45563	-0.029825872
153	0xbd55b8bd	-0.052178133
154	0x3a8fd6f1	0.0010974092
155	0x3cef9a73	0.029248452
156	0x3d02a8fc	0.031899437
157	0xbd731cf3	-0.05935378
158	0x3c1a3277	0.009411446
159	0x3c185bfa	0.009299273
160	0xbc0aed6d	-0.008479458
161	0xbd0f144d	-0.03493147
162	0xbd7f6276	-0.06234976
163	0xbaafe99a	-0.0013421059
164	0xbd769953	-0.060204815
165	0x3d30c8de	0.043160312
166	0x3c013786	0.007886773
167	0x3c58f95d	0.013243047
168	0xbc305158	-0.010761581
169	0xbca941ac	-0.020661198
170	0x3c0dd36f	0.008656367
171	0x3c6dd937	0.01451712
172	0xbd296014	-0.041351393
173	0x398af989	0.0002650733
174	0x3d252344	0.040316835
175	0xbb80ac32	-0.0039267773
176	0x3d1b8de4	0.037977114
177	0xbd8cd231	-0.06876028
178	0xbda450b9	-0.08023209
179	0xbd670fe6	-0.056411646
180	0xbcfb1b53	-0.030652678
181	0x3d7aee3d	0.061262358
182	0xbc34577e	-0.011007188
183	0xbdfd5445	-0.12369589
184	0xbdb148bf	-0.08656453
185	0xbe0c12c8	-0.1367904
186	0x3e123171	0.14276673
187	0x3d6d8dcc	0.057996556
188	0x3e05e5aa	0.13075891
189	0xbd11521e	-0.035478704
190	0xbcc93b0c	-0.024564289
191	0xbd5a4b97	-0.053294744
192	0x3b280048	0.0025634933
193	0xbc89628a	-0.01677062
194	0xbb2cd3aa	-0.0026371279
195	0xbd3d55c6	-0.046224378
196	0x3c0753fe	0.008259771
197	0x3bb83eab	0.005622705
198	0xbb12ab0c	-0.0022379784
199	0x3c109764	0.008825157
200	0xbd1a2829	-0.037635956
201	0x3d98f4ef	0.074685924
202	0xbd12a53b	-0.035802107
203	0x3c1b7bcb	0.009489964
204	0x3dafa81a	0.08576985
205	0xbcd82a90	-0.026387483
206	0x3ccd5a95	0.025067607
207	0xbd0590ca	-0.032608785
208	0xbd6f41e1	-0.058412436
209	0xbd51afd0	-0.05119306
210	0x3b48407a	0.003055601
211	0x3d292e6c	0.041304037
212	0xbd74878c	-0.05969958
213	0xbc94abab	-0.018148264
214	0x3db266be	0.08711003
215	0x3d172120	0.036896825
216	0x3b78e2b6	0.0037976927
217	0x3b9ffff6	0.004882808
218	0xbbabffc6	-0.0052489964
219	0xbcd434d8	-0.025904104
220	0xbb1e84fb	-0.002418815
221	0xbc0fb7cd	-0.008771849
222	0xbddb3599	-0.10703582
223	0x3c5ef59b	0.013608362
224	0x3c0eb511	0.008710162
225	0xbd96d643	-0.07365086
226	0xbdad15bd	-0.08451412
227	0xbd1f002c	-0.038818523
228	0xbc8f5a2f	-0.017499058
229	0xbda6076f	-0.081068866
230	0xbc1b12e4	-0.009464953
231	0x3da6b7fe	0.081405625
232	0xbce60e53	-0.028083002
233	0x3c7a315e	0.015270559
234	0xbd9765ff	-0.07392501
235	0xbc494230	-0.012283847
236	0x3cb17629	0.021662788
237	0xbd1396df	-0.036032554
238	0xbc97ffd4	-0.018554606
239	0xbbb193fa	-0.0054192515
240	0xbdbfcd81	-0.09365369
241	0xbdb97229	-0.090549774
242	0xbcc16898	-0.023609444
243	0xbda7c538	-0.08191913
244	0xbd27725c	-0.040880546
245	0xbdd1b661	-0.10239864
246	0xbc84a8da	-0.016193796
247	0xbdb8fdc1	-0.09032775
248	0xbd69867c	-0.05701302
249	0x3c921508	0.017832294
250	0xbd80d3c4	-0.06290391
251	0x3da2e73b	0.0795426
252	0xbb3c3f1f	-0.0028724147
253	0xbbac73ec	-0.0052628424
254	0xbd4fc546	-0.050725244
255	0xbcd33eec	-0.02578684

e2.0.bias f4 [64]
0	0xbd4674d9	-0.04845128
1	0xbb646fcd	-0.0034856678
2	0xbc6bc24f	-0.0143895885
3	0x3ca8c058	0.02059953
4	0xbd769458	-0.060200065
5	0xbb7b2d70	-0.0038326643
6	0xbb5cd465	-0.0033695933
7	0xbcdd713e	-0.027031537
8	0xbdc1f2c8	-0.09470135
9	0x3d8d8a4c	0.06911144
10	0xbd186b90	-0.037211955
11	0xbc78ad15	-0.015177985
12	0x3d60300c	0.05473332
13	0xbc866d30	-0.016409487
14	0x3c954aef	0.018224208
15	0x3d4f425c	0.050600395
16	0x3d091ed5	0.03347667
17	0x3d5273ee	0.05138009
18	0x3d0ee214	0.034883574
19	0x3d9a5220	0.07535195
20	0x3d29993c	0.0414059
21	0x3de3b5db	0.111186706
22	0xbd46ee42	-0.048567064
23	0xbd8e3260	-0.06943202
24	0xbd26ef50	-0.04075557
25	0xbce25b6b	-0.027631482
26	0xbd200bbb	-0.039073687
27	0x3d856b8c	0.065146536
28	0xba5f4170	-0.0008516526
29	0xbd005b97	-0.031337347
30	0xbcb85773	-0.022502637
31	0x3d03ca67	0.032175448
32	0xbd660c40	-0.056164026
33	0xbd088bf8	-0.03333661
34	0x3d273c37	0.04082891
35	0xbcb02a36	-0.021504503
36	0xbc92f3e0	-0.017938554
37	0xbd2a99e0	-0.041650653
38	0xbd1d08bf	-0.03833842
39	0x3d03829b	0.032106977
40	0xbd888cd9	-0.066674896
41	0xbcd68288	-0.026185289
42	0x3c95a4c0	0.018267035
43	0x3cbb8760	0.0228917
44	0xbd75b4c8	-0.05998686
45	0xbc983905	-0.018581877
46	0x3c51641d	0.0127802165
47	0xbd1432bc	-0.036181197
48	0xbcef94f5	-0.029245833
49	0xbc2e91a4	-0.010654841
50	0x3c6a1111	0.0142862955
51	0xbc392cf8	-0.011302225
52	0x3ba15990	0.0049240068
53	0x38dbda18	0.00010483357
54	0xbcc048aa	-0.023472149
55	0xbd06e2a2	-0.032930978
56	0xbd257736	-0.04039689
57	0x3d1bb4a0	0.038014054
58	0xbd986ace	-0.074422464
59	0x3d3636ef	0.044485983
60	0xbd59635f	-0.053073283
61	0xbbe00af4	-0.006837243
62	0xbcc57163	-0.024101919
63	0xbd5d25d3	-0.05399115

e2.1.weight f4 [64]
0	0x3f6d479e	0.92687404
1	0x3f7d054a	0.98836195
2	0x3f812460	1.0089226
3	0x3f740ac4	0.9532893
4	0x3f6d0775	0.92589504
5	0x3f80ce0d	1.0062882
6	0x3f8d729c	1.1050601
7	0x3f5a6e9a	0.85325015
8	0x3f817fe2	1.0117152
9	0x3f76de37	0.9643282
10	0x3f958e01	1.1683961
11	0x3f69bf8d	0.9130791
12	0x3f77174e	0.96519935
13	0x3f7309c8	0.949368
14	0x3f6e6785	0.9312671
15	0x3f8157fd	1.0104977
16	0x3f648e66	0.8927978
17	0x3f772a66	0.9654907
18	0x3f84ae8a	1.0365765
19	0x3f66024e	0.89847267
20	0x3f6c2528	0.92244196
21	0x3f8f324b	1.1187223
22	0x3f76dc1a	0.964296
23	0x3f6dc3ba	0.9287678
24	0x3f80c253	1.0059303
25	0x3f75efc7	0.96068996
26	0x3f825d35	1.0184695
27	0x3f8212e9	1.0162021
28	0x3f70ebd8	0.9410987
29	0x3f6f4a02	0.934723
30	0x3f7568c4	0.95862985
31	0x3f7b0fca	0.9807097
32	0x3f8b84be	1.0899885
33	0x3f78d2b1	0.9719649
34	0x3f6ecc0e	0.9328011
35	0x3f93364d	1.1500946
36	0x3f8160a7	1.0107621
37	0x3f8655a3	1.0494884
38	0x3f7bb1c8	0.9831815
39	0x3f868989	1.0510722
40	0x3f8d9c77	1.1063374
41	0x3f6b3f60	0.9189358
42	0x3f5f615e	0.87257946
43	0x3f5a8e76	0.8537363
44	0x3f86c098	1.0527525
45	0x3f8cc324	1.0997052
46	0x3f770aa0	0.9650059
47	0x3f75d781	0.9603196
48	0x3f814fc1	1.0102464
49	0x3f89afb8	1.075675
50	0x3f7e4423	0.9932272
51	0x3f764dce	0.9621247
52	0x3f88da67	1.0691651
53	0x3f87895f	1.0588797
54	0x3f73f8cc	0.9530151
55	0x3f7f04c3	0.9961664
56	0x3f6cc7d3	0.9249241
57	0x3f84aca9	1.0365192
58	0x3f72aa1c	0.94790816
59	0x3f7c758e	0.98616874
60	0x3f6f8c9e	0.9357394
61	0x3f822c75	1.0169817
62	0x3f922a4b	1.1419157
63	0x3f85e1a8	1.045949

e2.1.bias f4 [64]
0	0xbe0e328a	-0.13886467
1	0xbe6389bc	-0.2222051
2	0xbe1b37cd	-0.15158005
3	0xbe12db3a	-0.14341441
4	0xbe930e58	-0.2872188
5	0xbe1d1e8c	-0.15343684
6	0xbd1a7fb2	-0.037719436
7	0xbe6c1038	-0.23053062
8	0xbe570f15	-0.21001847
9	0xbdd3cdd9	-0.10341997
10	0xbeb42391	-0.35183385
11	0xbe553a8b	-0.20823114
12	0xbe7dd15c	-0.24786896
13	0xbe613a21	-0.2199483
14	0xbe2a4d1d	-0.16630979
15	0xbe7cd6ee	-0.24691364
16	0xbe03fa80	-0.12888527
17	0xbda76e99	-0.08175392
18	0xbe53685b	-0.20645277
19	0xbe6b30bc	-0.2296781
20	0xbdcd7451	-0.10031951
21	0xbe782480	-0.24232674
22	0xbe4caf53	-0.19988756
23	0xbe575122	-0.21027043
24	0xbe208ad2	-0.15677956
25	0xbe211a41	-0.15732671
26	0xbe7ba091	-0.2457297
27	0xbe2eab89	-0.17057623
28	0xbd565f3c	-0.052336916
29	0xbdbb2493	-0.09137835
30	0xbe605f0c	-0.21911258
31	0xbe5d811e	-0.21631286
32	0xbe96ac6d	-0.29428425
33	0xbe35cb02	-0.17753223
34	0xbe405bb3	-0.1878498
35	0xbdc2e34a	-0.09516008
36	0xbe94b377	-0.2904317
37	0xbd3380a2	-0.043823846
38	0xbd6b9d11	-0.057522837
39	0xbe853ea6	-0.2602436
40	0xbe5ba59b	-0.21449892
41	0xbe12bae1	-0.14329101
42	0xbe03d15c	-0.12872833
43	0xbe3dffd1	-0.18554617
44	0xbe67dcc8	-0.22642815
45	0xbe0db969	-0.1384026
46	0xbe8ddbf7	-0.27706882
47	0xbe6c8d9a	-0.23100892
48	0xbd99a672	-0.0750245
49	0xbe8667b4	-0.26250994
50	0xbdef0ec8	-0.11672741
51	0xbe852f25	-0.2601253
52	0xbeafc2ef	-0.3432841
53	0xbe38624c	-0.18006247
54	0xbe0ae6c4	-0.13564593
55	0xbe61959f	-0.22029732
56	0xbde1f53c	-0.11033103
57	0xbeb384ae	-0.35062164
58	0xbe0041a7	-0.12525044
59	0xbe5077fa	-0.20358267
60	0xbe7945d8	-0.2434305
61	0xbe26859c	-0.16261905
62	0xbe199fe8	-0.15002406
63	0xbd80260f	-0.06257259

e2.1.running_mean f4 [64]
0	0xbe9c5adf	-0.3053808
1	0xc01be9b3	-2.4361389
2	0x3d620279	0.05517814
3	0x3f634b97	0.88787216
4	0x3f8685ff	1.0509642
5	0xc037f2f6	-2.8742042
6	0xbf1cf35f	-0.61308855
7	0x3f94315f	1.1577567
8	0xbfc2a258	-1.5205793
9	0x404bcfbf	3.1845548
10	0xbee623f9	-0.4494932
11	0xbf8e1445	-1.1099936
12	0x3ecca42b	0.39969
13	0xbe255f68	-0.16149676
14	0x3edc47cc	0.43023527
15	0xbfc2416a	-1.5176213
16	0x3f748c7c	0.9552686
17	0x3f9eb17b	1.2397913
18	0xbf201834	-0.6253693
19	0x3f8b7057	1.0893658
20	0xbf61c024	-0.8818381
21	0xbea45fe5	-0.32104412
22	0x3e40786f	0.18795942
23	0xbf196f14	-0.59935117
24	0xbf52bb68	-0.8231721
25	0x3d67c14c	0.056580827
26	0x3da98994	0.08278194
27	0xbed915df	-0.423995
28	0x3f4566c2	0.7710992
29	0x3eef823c	0.46779048
30	0x3fb89c01	1.4422609
31	0xbf9bbc98	-1.2166929
32	0xbdf490f1	-0.11941708
33	0x3e85b86a	0.2611726
34	0x3f383a39	0.7196384
35	0xbf50439c	-0.81353164
36	0xbfca4752	-1.5803015
37	0xbf7d16b1	-0.9886275
38	0x3ea685af	0.32523867
39	0xbf703a3f	-0.93838876
40	0xbf31e3fa	-0.6948849
41	0x3f4c4362	0.7979032
42	0x3f0b60e3	0.5444471
43	0xbd09b518	-0.03361997
44	0xbf82d449	-1.0221034
45	0xbf867d66	-1.0507019
46	0xbff2a620	-1.8956947
47	0xbf8ea52b	-1.1144155
48	0xbf205cf0	-0.6264181
49	0xbf3c7be8	-0.73626566
50	0xbfcbff3a	-1.5937264
51	0x4009ade1	2.1512377
52	0xbf8c67a1	-1.0969125
53	0xbf9fed7a	-1.2494347
54	0x3ec0c899	0.37653044
55	0xbef058f3	-0.46942863
56	0x3ee98991	0.45612767
57	0xbeaa8087	-0.33301184
58	0x3f0ed02c	0.55786395
59	0x3eab8d6a	0.33506328
60	0x3fe2da18	1.7722807
61	0xbf6c9734	-0.9241822
62	0xbf83a8d2	-1.0285895
63	0xbf6075f7	-0.8768

e2.1.running_var f4 [64]
0	0x3fb50169	1.4141055
1	0x4059d16c	3.403407
2	0x3f9b1d6d	1.2118355
3	0x400ffbf0	2.249752
4	0x3fa8d10a	1.3188794
5	0x405f1615	3.4857228
6	0x3f3ee93c	0.7457464
7	0x402688c3	2.6020973
8	0x3fc5684e	1.5422456
9	0x40059f88	2.087862
10	0x3f121628	0.5706506
11	0x4027ba23	2.620736
12	0x3f946882	1.1594393
13	0x404bab72	3.1823392
14	0x3fbe0dbf	1.4847945
15	0x40082c48	2.1277027
16	0x401535b9	2.331404
17	0x40070279	2.109526
18	0x3f94d773	1.162825
19	0x400ea8f9	2.2290633
20	0x40115595	2.2708485
21	0x3f149857	0.5804495
22	0x3fd42f64	1.6576962
23	0x3fb51e68	1.4149904
24	0x3f8ccdcb	1.1000303
25	0x3f73ac75	0.95185024
26	0x3f1aa213	0.60403556
27	0x3f75bab7	0.9598803
28	0x3fb9e9f1	1.4524518
29	0x3f92ecad	1.1478478
30	0x3f8692d8	1.0513563
31	0x3fc42af7	1.5325612
32	0x3f44774e	0.76744545
33	0x3f8f944a	1.1217129
34	0x3fac9d99	1.3485595
35	0x3f4e8f05	0.8068698
36	0x40182b43	2.3776405
37	0x3f5be66d	0.85898477
38	0x3ffc9328	1.9732409
39	0x3fb94dd9	1.4476882
40	0x402568de	2.5845256
41	0x3fdad8ac	1.7097373
42	0x3fb967fb	1.4484857
43	0x3f7b9b85	0.9828418
44	0x3f52363f	0.8211402
45	0x40049715	2.0717213
46	0x403e9ac4	2.9781961
47	0x3f92b1fb	1.1460565
48	0x3ff04c09	1.8773204
49	0x3f41373a	0.75474894
50	0x409d6316	4.9183455
51	0x3ff5d292	1.9204886
52	0x40018692	2.0238385
53	0x4045c38b	3.09006
54	0x3f54c322	0.8311025
55	0x3f8cf987	1.101365
56	0x40118e10	2.2742958
57	0x3f18ac00	0.5963745
58	0x3f9ac918	1.2092619
59	0x3ff46a02	1.9094851
60	0x3fd57fd5	1.6679636
61	0x3fe6116d	1.7974068
62	0x3fb54ea0	1.416462
63	0x3f8dc202	1.1074831

e3.0.weight f4 [128, 64, 3, 3]
0	0xbd26a84c	-0.040687844
1	0xbcfe4025	-0.031036446
2	0xbd9277e9	-0.07151777
3	0x3d627b33	0.055293273
4	0x3c8450da	0.016151834
5	0x3c2b13c2	0.010441722
6	0xbd5d365e	-0.054006927
7	0xbcf90618	-0.030398414
8	0xbd6cf668	-0.05785218
9	0x3bda8016	0.006668101
10	0xbd10d6bd	-0.03536104
11	0xbda4f022	-0.08053614
12	0x3d3c5ca0	0.04598677
13	0x3d65f3ac	0.056140587
14	0x3c475cab	0.01216809
15	0x3d0d539a	0.034503557
16	0xbcdd7884	-0.027035005
17	0x3d128d2c	0.035779163
18	0x3d8da40d	0.06916056
19	0x3d152b86	0.03641846
20	0x3c7c2e59	0.0153919095
21	0x3d0f8ffa	0.035049416
22	0xbd024caa	-0.031811394
23	0xbba53ddd	-0.005042775
24	0x3d4daae8	0.050211817
25	0x3d04df9a	0.032439806
26	0xbd511c4d	-0.05105238
27	0xbdb44092	-0.08801378
28	0xbd9b829e	-0.075932726
29	0xbd8cd354	-0.06876245
30	0xbc736784	-0.014856223
31	0xbc8e068e	-0.01733711
32	0x3c8e2f0d	0.01735642
33	0x3d302c94	0.043011263
34	0x3bba23d6	0.0056805415
35	0x3d004836	0.031318866
36	0xbcdb213a	-0.026749242
37	0x3d0fc2cf	0.035097893
38	0x3d5354a4	0.05159439
39	0xbda9d72c	-0.08292994
40	0xbd95dd7a	-0.07317634
41	0xbd6bd8da	-0.057579853
42	0xbd0aa3ee	-0.03384774
43	0xbd934e28	-0.071926415
44	0xbd9ee8a0	-0.077592134
45	0xbd2f69a1	-0.042825345
46	0xbc13fec5	-0.00903291
47	0xbda2f2cb	-0.07956465
48	0x3d22fa55	0.039789516
49	0xbce49989	-0.027905243
50	0xbca37b7a	-0.01995634
51	0x3d945ba7	0.07244044
52	0x3d1ffe70	0.03906101
53	0x3c980137	0.018555267
54	0x3d5ba9fe	0.053628914
55	0xbd34b3c8	-0.044116765
56	0xbdac9067	-0.0842598
57	0x3d45eb73	0.048320245
58	0x3cedceb3	0.029029226
59	0x3c3a9181	0.01138723
60	0xbd68903c	-0.056778178
61	0xbd2293e4	-0.03969182
62	0xbdb4ca85	-0.0882769
63	0x3be20ad5	0.006898264
64	0xbd65bc22	-0.05608762
65	0xbc8e448b	-0.017366668
66	0xbbc2c39a	-0.0059437277
67	0x3c33aae3	0.010966036
68	0x3a701a19	0.00091591623
69	0x3ca8cf4d	0.020606661
70	0x3b23c368	0.0024988297
71	0x3d595695	0.053061087
72	0xbbe1156f	-0.00686901
73	0xbce7f04c	-0.028312825
74	0xbc926311	-0.017869504
75	0x3c1238a6	0.008924639
76	0xbc07328f	-0.0082518
77	0x3d28c5d3	0.041204285
78	0x3cb991d6	0.022652548
79	0x3d1e91be	0.03871321
80	0x3c74a132	0.01493101
81	0x3d746da0	0.05967486
82	0x3d26ab28	0.04069057
83	0x3d96c586	0.07361893
84	0xbd0b6a98	-0.034037203
85	0x3bbe3c65	0.0058055394
86	0x3c44d67f	0.0120140305
87	0xbd2303b8	-0.03979847
88	0x3cc0bb87	0.02352692
89	0x3b949a73	0.0045350133
90	0xbda9b63d	-0.08286712
91	0x3caba4c0	0.020952582
92	0x3e4220c4	0.18957812
93	0x3d3abe52	0.04559166
94	0x3d77bffd	0.06048583
95	0x3c426e3b	0.011867101
96	0xbd05a0f0	-0.032624185
97	0x3c9dd2be	0.019265529
98	0x3c3250f2	0.010883557
99	0x3d0e9fe9	0.03482047
100	0x3cf13a23	0.029446667
101	0x3cf96bbc	0.03044688
102	0xbaeb4369	-0.0017949167
103	0x3cb24c0a	0.021764774
104	0x3c32387a	0.010877723
105	0x3c86f3ed	0.016473735
106	0x3ca840d1	0.02053872
107	0xbc451419	-0.012028717
108	0x396ecb5c	0.00022773206
109	0x3c088bff	0.008334159
110	0x3da4a5fd	0.08039472
111	0xbc6e9e40	-0.014564097
112	0x3d52527b	0.05134819
113	0x3cc7e283	0.024400001
114	0x3d558444	0.05212809
115	0x3d64995b	0.055810314
116	0x3d01ec5c	0.03171955
117	0x3caa9c5c	0.020826511
118	0xbad8b75d	-0.0016534139
119	0x3d304779	0.04303691
120	0x3d912547	0.07087188
121	0x3d95d56c	0.073160976
122	0x3d929d4d	0.07158909
123	0xbdac8879	-0.084244676
124	0xbc935249	-0.017983573
125	0xbd5f81dd	-0.054567207
126	0x3d8cd7ac	0.06877074
127	0xbb81df3d	-0.0039633797
128	0xba0c4dca	-0.00053521676
129	0x3b22be82	0.002483279
130	0xbcaef38b	-0.021356365
131	0x3c99bb01	0.018765928
132	0x3da061ce	0.07831155
133	0x3d421e8d	0.047392417
134	0x3d4e94ac	0.050434753
135	0xbdffa825	-0.12483243
136	0xbdc451ec	-0.09585938
137	0xbe060fb5	-0.1309193
138	0xbbf85fd7	-0.0075797844
139	0x3d0a7425	0.03380217
140	0xbc4e88af	-0.01260583
141	0x3daf8c00	0.08571625
142	0x3d973a4a	0.07384165
143	0x3d859cec	0.06524071
144	0x3d88d9cf	0.06682169
145	0x3d994210	0.074833035
146	0x3c42437c	0.01185691
147	0x3c88f073	0.016716218
148	0x3d5300bd	0.051514376
149	0xbae94b90	-0.0017799009
150	0xbd0dc735	-0.034613807
151	0x3cf1e763	0.02952928
152	0xbaacd3da	-0.0013185695
153	0xbc8cab60	-0.017171562
154	0x3b4f17fb	0.0031599987
155	0xbd99eece	-0.075162515
156	0xbcc178d3	-0.023617184
157	0xbc9186b3	-0.017764425
158	0xbc95b877	-0.018276436
159	0x3d8a3ecd	0.067502595
160	0x3d5cf137	0.053940978
161	0x3c641145	0.013920133
162	0xbd612d8d	-0.05497508
163	0xbcf75a15	-0.030194322
164	0x3c9a37b2	0.018825386
165	0xbcfab5d6	-0.030604284
166	0xbcb42d4c	-0.021994255
167	0xbcb763b7	-0.022386415
168	0xbd576e1e	-0.05259525
169	0xbc82d7ad	-0.015971983
170	0x3d69e265	0.057100672
171	0x3cb365e7	0.021899177
172	0x3d0a8b62	0.033824332
173	0x3d6f16ee	0.058371477
174	0x3d56e4a5	0.052464146
175	0x3da447c9	0.080215044
176	0x3d8fd9d4	0.07023969
177	0xbd6857ef	-0.056724485
178	0xbce538b5	-0.027981142
179	0x3c1c4643	0.009538236
180	0xbe139cd2	-0.14415291
181	0xbe14b3fb	-0.14521782
182	0xbdb21290	-0.08694947
183	0xbca87b41	-0.020566585
184	0xbcdccd0d	-0.026953245
185	0xbda99848	-0.082809985
186	0x3d42359b	0.047414403
187	0x3d911315	0.07083718
188	0x3d97f90a	0.07420547
189	0x3d049d90	0.032376826
190	0xbd2776a7	-0.04088464
191	0xbccc8a22	-0.02496821
192	0xbdab8094	-0.08374134
193	0xbc2bdd1a	-0.010489726
194	0xbdf0e655	-0.11762682
195	0xbd29eda6	-0.041486405
196	0xbd2fabba	-0.04288838
197	0xbe01139e	-0.1260514
198	0xbbe4170a	-0.0069607543
199	0x3d1ee9b6	0.038797103
200	0x3d3f5bb1	0.046718303
201	0x3bf36fbb	0.007429091
202	0x3d13a6e8	0.036047846
203	0xbbf746a0	-0.007546261
204	0xbdaca566	-0.08429985
205	0xbddb4cf2	-0.107080355
206	0xbde82cde	-0.11336683
207	0x3d8d1158	0.06888074
208	0x3bae827a	0.0053256126
209	0x3cc97354	0.024591126
210	0xbaa671af	-0.0012698675
211	0xbd09c721	-0.03363717
212	0xbd785fac	-0.060638115
213	0xbd1a1c36	-0.03762456
214	0xbcad67b7	-0.02116762
215	0xbd247d92	-0.040158816
216	0x3d5a9f46	0.05337455
217	0x3ccbec65	0.024892995
218	0x3d859553	0.06522622
219	0x3b93b361	0.0045074676
220	0x3d4a57ef	0.049400266
221	0x3d26a1d3	0.04068167
222	0x3cb3233b	0.021867385
223	0x3d01d74e	0.03169947
224	0xbbd1cbdb	-0.0064024753
225	0x3d01173b	0.031516295
226	0xbcbccbba	-0.023046363
227	0xbd3f22db	-0.0466641
228	0x3d68ef09	0.056868587
229	0x3d9e3591	0.07725061
230	0x3ca58f96	0.020210069
231	0x3d162b18	0.03666219
232	0x3c861dbf	0.016371606
233	0x3c0aa790	0.008462802
234	0x3cccd272	0.025002692
235	0xbca931d8	-0.02065365
236	0x3c99f47a	0.018793333
237	0x3d9e391d	0.07725737
238	0x3c1b3932	0.009474086
239	0xbc37c349	-0.011215993
240	0x3c63915e	0.013889639
241	0x3ce5062c	0.027957045
242	0x3d55f754	0.052237824
243	0x3d5061f5	0.05087467
244	0x3cb57f6c	0.022155486
245	0x3d4f50c3	0.05061413
246	0xbd265845	-0.040611524
247	0x3d0bb4f4	0.034108117
248	0x3c85c59f	0.016329585
249	0xbd93c7e0	-0.072158575
250	0xbdf33469	-0.11875231
251	0x3b7d9b18	0.003869718
252	0xbccc15b1	-0.024912687
253	0x3d2a2d6f	0.041547235
254	0x3d81627e	0.06317614
255	0xbd128129	-0.035767708

e3.0.bias f4 [128]
0	0xbaf32d2d	-0.0018552892
1	0x3b452cce	0.003008652
2	0x3ce75cdb	0.02824252
3	0xbd05f9f2	-0.03270907
4	0x3cc0c67b	0.023532143
5	0x3b3ed14f	0.0029116457
6	0xbc99b25f	-0.018761812
7	0xbd21990b	-0.039452594
8	0xbcd23282	-0.02565885
9	0xbd08731a	-0.033312894
10	0xbb60d3d1	-0.003430594
11	0xbccf19aa	-0.025280792
12	0x3bfef68a	0.0077808546
13	0x3ccdb2a7	0.025109602
14	0xbc9cbde5	-0.019133518
15	0x3cf22786	0.029559862
16	0x3d1e1ad0	0.03859979
17	0xbc5ea59d	-0.01358929
18	0xbb63c3da	-0.0034754188
19	0xbcf26846	-0.029590737
20	0xbcf6f585	-0.03014637
21	0x3c5c3912	0.013441341
22	0x3a831b81	0.0010002704
23	0xbbe286be	-0.006913035
24	0x3c9d7ea4	0.019225426
25	0x3ca28e74	0.019843318
26	0xbcc5d9a7	-0.024151636
27	0xbaab48aa	-0.001306792
28	0x3c781a6a	0.015143016
29	0x3cb814c2	0.022470836
30	0x3d2cb12a	0.042161144
31	0x3d2b768b	0.0418611
32	0x3b789339	0.0037929548
33	0xbc6560ab	-0.014000098
34	0x3b293f96	0.0025825254
35	0xbcd2ab20	-0.025716364
36	0xbcffb93b	-0.031216254
37	0x3cf1a60b	0.02949812
38	0x3d10fac5	0.035395402
39	0x3cdef167	0.027214719
40	0xbbc54692	-0.0060203755
41	0x3c294282	0.010330798
42	0x3d312eb1	0.04325742
43	0x3d1bc952	0.03803379
44	0xbc8f2e9e	-0.017478283
45	0x3bb17b45	0.005416306
46	0xbcead9f2	-0.028668378
47	0x3b69bfd2	0.0035667312
48	0x3d205027	0.03913894
49	0x3d13f94b	0.036126416
50	0xbbd876e3	-0.0066059693
51	0xbca4ab76	-0.02010129
52	0xbce3c5a1	-0.027804198
53	0xbc16c73a	-0.009202773
54	0xbb5584fd	-0.0032580488
55	0xbb4a6017	-0.0030880028
56	0x3a71e7fd	0.00092279894
57	0x3a0a1a65	0.00052682153
58	0x3cebad34	0.028769113
59	0xbd0dbeb9	-0.034605715
60	0xbb96e03e	-0.0046043685
61	0x3c666973	0.014063227
62	0xbd38c2ae	-0.045107536
63	0x3cef895a	0.029240299
64	0xbd0d328a	-0.034472026
65	0x3d0edc4b	0.034878056
66	0x3d07855e	0.033086173
67	0x3caa0eb9	0.020758973
68	0xbc26d4c2	-0.010182561
69	0x3cad6f3c	0.021171205
70	0x3d29f38e	0.041492037
71	0xbb9496d5	-0.004534582
72	0x3cd663ca	0.02617063
73	0x3c133502	0.008984806
74	0xbcc08d81	-0.023504974
75	0xbc78e237	-0.015190653
76	0xbce5ad80	-0.028036833
77	0xbcef1595	-0.029185096
78	0x3d0bc345	0.03412177
79	0x3ced9c39	0.029005157
80	0x3cc47807	0.023983015
81	0xbd214e1e	-0.03938114
82	0xbc4c5717	-0.012471936
83	0xbbf5e807	-0.0075044665
84	0x3cbc8c3e	0.023016091
85	0xbd25fdac	-0.040525123
86	0x3bfdbf79	0.0077437726
87	0xbad78002	-0.0016441348
88	0x3d115780	0.035483837
89	0xbd373527	-0.044728424
90	0x3d0ef570	0.034902036
91	0x3cdc94ba	0.026926387
92	0x3cfdc439	0.030977355
93	0xbd080134	-0.033204272
94	0x3cb7fbc3	0.022458917
95	0xbd16557f	-0.03670263
96	0x3ce7fd8c	0.028319143
97	0xbc4118e6	-0.011785721
98	0xbd350081	-0.044189934
99	0x3d02c0db	0.031922203
100	0xbc0ec6ee	-0.008714421
101	0x3ba6dd57	0.0050923037
102	0xbc5e06b3	-0.013551402
103	0x3cf979e2	0.030453626
104	0x3ce354d3	0.027750408
105	0xbca078e0	-0.019588888
106	0x3ccfe9e2	0.025380079
107	0x3c3ce2a2	0.011528643
108	0xbc9a0909	-0.018803136
109	0x3b66be91	0.0035208801
110	0x3d3eec92	0.04661233
111	0x3c43808e	0.011932505
112	0x3c638484	0.013886575
113	0x3d09531b	0.03352652
114	0x3d14db10	0.036341727
115	0x3b28900c	0.0025720624
116	0xbc9f5f5a	-0.019454647
117	0xbcd40f5f	-0.025886236
118	0xbc1dc8d6	-0.009630403
119	0xbd151184	-0.036393657
120	0x3cbddc3b	0.023176303
121	0xbd009f32	-0.03140182
122	0xbcbef5c9	-0.023310559
123	0x3aba3973	0.0014207795
124	0x3c850f80	0.016242743
125	0x3c8f0abf	0.017461179
126	0xbd10b9a5	-0.035333294
127	0xbc8f5a36	-0.01749907

e3.1.weight f4 [128]
0	0x3f6614a0	0.8987522
1	0x3f75c6c8	0.9600644
2	0x3f7282a0	0.9473057
3	0x3f7a6567	0.9781098
4	0x3f89d2bb	1.0767435
5	0x3f6ecdb3	0.9328262
6	0x3f6c36fa	0.9227139
7	0x3f77b75a	0.9676415
8	0x3f8019fa	1.0007927
9	0x3f7015b6	0.9378313
10	0x3f7dde85	0.9916766
11	0x3f7a6c84	0.9782183
12	0x3f691cc3	0.9105951
13	0x3f69efeb	0.9138171
14	0x3f9ff524	1.2496686
15	0x3f72c64e	0.9483384
16	0x3f6c4511	0.92292887
17	0x3f88677b	1.065658
18	0x3f75cf9a	0.960199
19	0x3f7c3be9	0.98528916
20	0x3f7ec20a	0.9951483
21	0x3f733f4c	0.9501846
22	0x3f882536	1.0636356
23	0x3f7acd89	0.9796987
24	0x3f847b2d	1.035009
25	0x3f78174f	0.96910566
26	0x3f7dd860	0.9915829
27	0x3f6a2f0b	0.9147803
28	0x3f831f78	1.0243979
29	0x3f7ef8b6	0.9959825
30	0x3f83e3c4	1.0303884
31	0x3f88eecb	1.0697874
32	0x3f7184ce	0.9434327
33	0x3f665bdd	0.8998392
34	0x3f7238de	0.9461802
35	0x3f63ce8a	0.8898703
36	0x3f794760	0.97374535
37	0x3f6b517a	0.919212
38	0x3f77dcce	0.96821296
39	0x3f59395a	0.84853137
40	0x3f7549d8	0.958158
41	0x3f885910	1.065218
42	0x3f6cbf70	0.9247961
43	0x3f84dbef	1.0379618
44	0x3f6c57f0	0.9232168
45	0x3f82425d	1.0176502
46	0x3f8076bc	1.0036235
47	0x3f87dc93	1.0614189
48	0x3f6a8097	0.9160246
49	0x3f823dc4	1.0175099
50	0x3f779650	0.96713734
51	0x3f73288f	0.9498376
52	0x3f7c6c7c	0.98603034
53	0x3f802c39	1.0013496
54	0x3f609777	0.87731117
55	0x3f79045d	0.9727228
56	0x3f767cee	0.9628438
57	0x3f78e9fa	0.9723202
58	0x3f65e438	0.8980136
59	0x3f812333	1.0088867
60	0x3f7f1c1b	0.9965226
61	0x3f624d7e	0.88399494
62	0x3f72d3a5	0.94854194
63	0x3f97bb34	1.1854005
64	0x3f6ffa6c	0.9374149
65	0x3f66d5db	0.9017007
66	0x3f71a77d	0.9439619
67	0x3f78df50	0.9721575
68	0x3f6c5262	0.92313206
69	0x3f7e8f6a	0.9943758
70	0x3f8263b1	1.0186673
71	0x3f85cb52	1.0452673
72	0x3f748988	0.95522356
73	0x3f79df26	0.9760612
74	0x3f78df35	0.97215587
75	0x3f724edd	0.94651586
76	0x3f94b514	1.1617761
77	0x3f86f629	1.0543872
78	0x3f77528e	0.96610343
79	0x3f849a74	1.0359635
80	0x3f7e8c3f	0.9943275
81	0x3f7a0081	0.9765702
82	0x3f830339	1.0235358
83	0x3f71f22f	0.9451017
84	0x3f8167c8	1.0109797
85	0x3f73e342	0.9526864
86	0x3f6d5787	0.9271168
87	0x3f66f313	0.9021465
88	0x3f7773d0	0.9666109
89	0x3f98e1a3	1.1943859
90	0x3f6d73bf	0.9275474
91	0x3f78392d	0.96962243
92	0x3f74a636	0.9556612
93	0x3f7abfd7	0.97948974
94	0x3f7cb992	0.9872066
95	0x3f8b7b73	1.0897049
96	0x3f824024	1.0175824
97	0x3f6843ed	0.90728647
98	0x3f6ca933	0.9244568
99	0x3f7a3779	0.97740895
100	0x3f755fd5	0.95849353
101	0x3f6b0c26	0.9181541
102	0x3f7f315e	0.99684703
103	0x3f774af0	0.9659872
104	0x3f75ec0f	0.9606332
105	0x3f74a4da	0.95564044
106	0x3f681931	0.9066344
107	0x3f6d1b69	0.9261995
108	0x3f8aa051	1.0830175
109	0x3f77c320	0.9678211
110	0x3f6a3dab	0.9150035
111	0x3f7d2db6	0.98897874
112	0x3f753e7a	0.95798457
113	0x3f624797	0.8839049
114	0x3f6e2685	0.93027526
115	0x3f63c1b3	0.88967437
116	0x3f889c21	1.0672647
117	0x3f80e5f0	1.0070171
118	0x3f79c9df	0.97573656
119	0x3f8c92be	1.0982282
120	0x3f8949b3	1.0725616
121	0x3f7d98ce	0.99061286
122	0x3f7bf9b1	0.98427874
123	0x3f7615f1	0.9612723
124	0x3f7c15ed	0.98470956
125	0x3f633895	0.8875821
126	0x3f7110d7	0.9416632
127	0x3f9111b2	1.1333525

e3.1.bias f4 [128]
0	0xbe55a262	-0.20862725
1	0xbe24a78a	-0.16079536
2	0xbe71bc67	-0.23607026
3	0xbe80a16b	-0.25123152
4	0xbe78c945	-0.24295528
5	0xbe747e8b	-0.23876397
6	0xbe750ded	-0.23931094
7	0xbea64312	-0.32473046
8	0xbe07935e	-0.1323981
9	0xbe45f259	-0.1933073
10	0xbe20b60f	-0.1569445
11	0xbe1c3aaa	-0.15256754
12	0xbe9dd481	-0.3082619
13	0xbe471a8b	-0.19443719
14	0xbe966181	-0.29371265
15	0xbe87b3fc	-0.26504505
16	0xbe411bfa	-0.18858328
17	0xbe612632	-0.21987227
18	0xbe95f28e	-0.29286617
19	0xbe894ab6	-0.26814812
20	0xbe53925e	-0.20661303
21	0xbe2a2554	-0.16615802
22	0xbeb05323	-0.34438428
23	0xbe28102f	-0.16412424
24	0xbe68c3a7	-0.22730885
25	0xbe1eb993	-0.15500478
26	0xbe4dd3c9	-0.20100321
27	0xbe6fd1fe	-0.2341995
28	0xbe46b278	-0.19404018
29	0xbe4ace4d	-0.1980526
30	0xbe1fefe4	-0.15618855
31	0xbe6d7769	-0.23190083
32	0xbe389625	-0.18026026
33	0xbe52500d	-0.2053835
34	0xbe5984b7	-0.21242033
35	0xbe4b992a	-0.19882646
36	0xbe16094a	-0.14651981
37	0xbe88f05a	-0.26745874
38	0xbe57776a	-0.21041647
39	0xbe1a39bf	-0.15061091
40	0xbe5131f8	-0.20429218
41	0xbec19261	-0.3780699
42	0xbe64c42f	-0.22340463
43	0xbecfc0fd	-0.40576926
44	0xbdd940ed	-0.10608087
45	0xbe4e207f	-0.20129584
46	0xbe910704	-0.28325665
47	0xbde38028	-0.11108428
48	0xbe6ce7bc	-0.23135275
49	0xbe167340	-0.14692402
50	0xbe5aea0f	-0.21378349
51	0xbe53b44b	-0.20674245
52	0xbdcf870a	-0.101331785
53	0xbe956d71	-0.2918506
54	0xbe76ffe0	-0.24121046
55	0xbe047107	-0.12933742
56	0xbe423b7a	-0.18968001
57	0xbe03ab71	-0.12858368
58	0xbe47dd16	-0.19517931
59	0xbe2a299f	-0.1661744
60	0xbdfaeba3	-0.122519754
61	0xbe68caef	-0.22733663
62	0xbe0d7b3f	-0.13816546
63	0xbe5ad068	-0.21368563
64	0xbe4081e8	-0.18799555
65	0xbe586971	-0.21133973
66	0xbe8f5a21	-0.2799845
67	0xbe94e6b5	-0.29082265
68	0xbdde6f0f	-0.108610265
69	0xbe117f39	-0.14208688
70	0xbe739826	-0.23788509
71	0xbe26aa70	-0.16275954
72	0xbdddf5ae	-0.10837875
73	0xbe04c6fc	-0.12966532
74	0xbe907aa5	-0.2821857
75	0xbea1de79	-0.31615046
76	0xbe8c604d	-0.27417222
77	0xbe2917d1	-0.16512991
78	0xbea2200d	-0.31665078
79	0xbe4d4359	-0.20045222
80	0xbdecc4a0	-0.11560941
81	0xbe5c99a3	-0.21542983
82	0xbe41cd59	-0.1892599
83	0xbe86fcb7	-0.2636468
84	0xbe320372	-0.17384127
85	0xbe2ae5ca	-0.1668922
86	0xbe73bcb5	-0.23802455
87	0xbe97e11c	-0.29663932
88	0xbea204f9	-0.3164442
89	0xbe993ce5	-0.2992927
90	0xbe9bbd67	-0.3041794
91	0xbe86f877	-0.2636144
92	0xbe2a3dea	-0.16625181
93	0xbe13f69f	-0.14449547
94	0xbdecf128	-0.115694344
95	0xbe8a2968	-0.26984715
96	0xbe809e1b	-0.25120625
97	0xbe8dd8fb	-0.27704605
98	0xbe63f553	-0.22261553
99	0xbde6c5c7	-0.11268192
100	0xbe394043	-0.1809092
101	0xbeb529b6	-0.35383385
102	0xbdfb0463	-0.12256696
103	0xbe554ff4	-0.20831281
104	0xbe2b4557	-0.1672567
105	0xbe5b79b4	-0.21433145
106	0xbe76ae99	-0.24090041
107	0xbe198af7	-0.14994417
108	0xbe8fd78d	-0.2809414
109	0xbe3ca716	-0.18423113
110	0xbe360008	-0.1777345
111	0xbe9091bc	-0.28236187
112	0xbe12f725	-0.1435209
113	0xbe8949ac	-0.2681402
114	0xbdead6d5	-0.11466757
115	0xbe3d6328	-0.18494856
116	0xbe5af7b5	-0.21383555
117	0xbe0d4fc9	-0.13799967
118	0xbe4d6dfc	-0.20061487
119	0xbe5586ae	-0.20852157
120	0xbee9e37e	-0.45681375
121	0xbe826d9b	-0.25474247
122	0xbe7d9b1c	-0.24766201
123	0xbde04104	-0.10949901
124	0xbe15cfc9	-0.14630045
125	0xbeb16f22	-0.346551
126	0xbe328db8	-0.17436874
127	0xbe972dc9	-0.2952712

e3.1.running_mean f4 [128]
0	0xbed3d364	-0.41372216
1	0xbf6e180f	-0.9300546
2	0xc011bb8a	-2.2770715
3	0xbf161413	-0.5862438
4	0xbf884a23	-1.0647625
5	0xbdb4091c	-0.087908
6	0xbfdd1bc2	-1.7274096
7	0xc013f7a2	-2.3119893
8	0x3f4e4dba	0.8058735
9	0xc01a3f4c	-2.4101133
10	0x3d239b4f	0.039943036
11	0xbff63827	-1.9235886
12	0xbfc71ff6	-1.5556629
13	0x400874ff	2.1321409
14	0xbf0735e6	-0.5281662
15	0xbf5d6b6c	-0.8649204
16	0x3e1d74ca	0.15376583
17	0xbfded344	-1.7408223
18	0x3f17e3d5	0.5933202
19	0xbf5b4698	-0.8565459
20	0xbf3d02e4	-0.73832536
21	0xbf999aed	-1.2000405
22	0x3fd8a442	1.6925128
23	0xbeb50482	-0.35355002
24	0xbfab763e	-1.339546
25	0xbfff7fd7	-1.9960889
26	0xbfe2e5df	-1.7726401
27	0x3fad6bee	1.3548563
28	0x3fd3b8c0	1.6540756
29	0xc005e728	-2.0922337
30	0xbfbea9a2	-1.4895518
31	0xbf55c19d	-0.83498555
32	0xc0539f20	-3.3065872
33	0xbe0a6fb4	-0.13519174
34	0xbe9d2153	-0.30689487
35	0xbe75f2b0	-0.24018359
36	0xbf0c8466	-0.54889524
37	0xbe71b783	-0.2360516
38	0xbfb3c051	-1.4043065
39	0x3f864bef	1.0491923
40	0xbf90f7d1	-1.1325628
41	0xbfc989fa	-1.5745232
42	0xbf61a33b	-0.88139695
43	0xbf4195a6	-0.7561897
44	0x3d84e3f7	0.06488793
45	0xbf2dea41	-0.6793557
46	0x3e141ece	0.14464876
47	0xbe04f599	-0.12984313
48	0xbf0c9da0	-0.54928017
49	0x3fc611ef	1.5474223
50	0x3ef7d230	0.48402548
51	0xc022ee6a	-2.5458016
52	0xbf643a9e	-0.8915194
53	0xbfb37784	-1.4020848
54	0xbf90fc5b	-1.1327013
55	0xbff7b8b4	-1.9353242
56	0x3e98dd85	0.29856506
57	0x3e6a644a	0.2288982
58	0xbf953997	-1.16582
59	0xbdac56f0	-0.084150195
60	0x3ff53289	1.9156047
61	0xc022ca23	-2.5435874
62	0xc0162522	-2.3460164
63	0xbf6f15eb	-0.9339282
64	0xbf641a1a	-0.8910233
65	0xbf1d2f38	-0.61400175
66	0xbf50d0e4	-0.8156874
67	0xc0031d90	-2.0486794
68	0xbf1570ba	-0.5837513
69	0x3e3e0c17	0.185593
70	0xbfd7e3a2	-1.6866343
71	0xbf3c734c	-0.7361343
72	0x3f85f886	1.0466468
73	0x400a5dc9	2.1619742
74	0xbeaa4a08	-0.33259606
75	0xc00f17ac	-2.2358198
76	0xbf1cdfa7	-0.61278766
77	0xbf564a65	-0.8370727
78	0xbf8e91d8	-1.1138258
79	0xc02c1f64	-2.689416
80	0xbe511f18	-0.20422018
81	0x3e99f5a9	0.30070236
82	0xbf925004	-1.1430669
83	0x3fb76e1b	1.4330477
84	0xbeba2899	-0.363591
85	0xbf887f98	-1.0663939
86	0xbd8a4bde	-0.06752752
87	0xbf629c83	-0.8852007
88	0xc006164f	-2.0951116
89	0xbe56b4f6	-0.20967469
90	0x3dc90c39	0.098167844
91	0xbf83a0df	-1.0283469
92	0xbf758d40	-0.95918655
93	0xbfaa100d	-1.3286148
94	0xbe920794	-0.28521407
95	0xbfa1230c	-1.258882
96	0x3e2d7654	0.1693967
97	0x3f424f7b	0.7590253
98	0xbf9ffc7f	-1.2498931
99	0x3ff4bfd1	1.9121038
100	0xbf3915eb	-0.7229907
101	0xbfd10002	-1.6328127
102	0x3ea77a3f	0.32710454
103	0x3f372574	0.71541524
104	0x3edeb922	0.4350062
105	0x3efaed5c	0.49009216
106	0xbfd16d88	-1.6361551
107	0x3fc5d7fb	1.5456537
108	0x3d3d10e0	0.04615867
109	0xbfab744c	-1.3394866
110	0xc0701151	-3.751057
111	0xbfff9197	-1.9966305
112	0xc051f20f	-3.280399
113	0xbf734650	-0.95029163
114	0xbf9aef52	-1.2104285
115	0xbe1ab80d	-0.15109272
116	0xbfd2b035	-1.6460024
117	0xbf6cc44a	-0.92487013
118	0x3ea53d03	0.3227311
119	0xbec5f8d9	-0.38666418
120	0xbf7c53a2	-0.98565114
121	0xbf90348c	-1.1266036
122	0xbf304c84	-0.68866754
123	0xbf887d2a	-1.0663197
124	0xbe252947	-0.16129027
125	0xc0074446	-2.113542
126	0xbf8d286d	-1.1027962
127	0xbf71e8d1	-0.94495875

e3.1.running_var f4 [128]
0	0x40253342	2.5812535
1	0x401164df	2.2717817
2	0x4023878b	2.555148
3	0x40720b3c	3.7819357
4	0x3fc80077	1.5625142
5	0x3fcc2c79	1.5951072
6	0x3ff14629	1.8849536
7	0x4019e32e	2.404491
8	0x403091fe	2.7589107
9	0x4001ca9b	2.027991
10	0x3fb829a7	1.4387711
11	0x3fb68a5e	1.4260976
12	0x4094fd4a	4.655919
13	0x405ace55	3.4188435
14	0x3fbb40c1	1.4629136
15	0x40491c4e	3.1423526
16	0x4022d63a	2.5443254
17	0x403de327	2.9669893
18	0x406972bb	3.6476276
19	0x3fc77568	1.5582705
20	0x4029673b	2.6469257
21	0x404de9c2	3.2173924
22	0x402d732a	2.710154
23	0x3f9638da	1.17361
24	0x405aa715	3.4164479
25	0x405eef83	3.4833686
26	0x40350dc0	2.8289642
27	0x401dc867	2.4653566
28	0x40124d70	2.2859764
29	0x400d8699	2.2113402
30	0x403e6a91	2.9752543
31	0x3f9fa5ca	1.247247
32	0x4068dbbe	3.638412
33	0x3fc7dd88	1.5614481
34	0x3fcf13db	1.6177934
35	0x40619c35	3.5251591
36	0x40013392	2.0187726
37	0x4032c71c	2.7934027
38	0x4062b6d8	3.54241
39	0x4068b8c1	3.6362765
40	0x4012b57a	2.2923265
41	0x40388d64	2.8836298
42	0x401d382d	2.4565537
43	0x3ffbe794	1.9680047
44	0x409257e5	4.5732293
45	0x40a26825	5.075213
46	0x3fe7cb64	1.8108945
47	0x3fdba68e	1.7160203
48	0x3fdca305	1.723725
49	0x40465d8e	3.0994601
50	0x400934fc	2.143859
51	0x402df661	2.7181628
52	0x40088fb0	2.13377
53	0x40397ebe	2.8983607
54	0x402a6741	2.662552
55	0x4062e791	3.5453837
56	0x400e7f22	2.2265096
57	0x3faf2337	1.3682622
58	0x4052c34c	3.29317
59	0x400e1338	2.219923
60	0x405b0dae	3.42271
61	0x404130a0	3.0185928
62	0x408617c2	4.1904
63	0x3faf6197	1.3701657
64	0x4072e5c9	3.795275
65	0x40426a1f	3.037727
66	0x3ff052fc	1.8775325
67	0x401a8963	2.4146354
68	0x407df605	3.9681408
69	0x3fdcde3a	1.7255318
70	0x400779f7	2.1168191
71	0x4005b032	2.088879
72	0x3fc0f44c	1.5074553
73	0x40359669	2.8373053
74	0x3fe080f7	1.7539357
75	0x404a7f75	3.1640294
76	0x3f8f21fc	1.1182246
77	0x3fc030f5	1.501494
78	0x3ff4561c	1.9088778
79	0x4054fcdc	3.3279333
80	0x3facd1eb	1.3501562
81	0x400f9e9e	2.2440562
82	0x40609f39	3.5097182
83	0x3fa02277	1.2510518
84	0x401539c2	2.3316503
85	0x3fe23689	1.7672893
86	0x4047cadd	3.1217568
87	0x3f87f1aa	1.0620625
88	0x3ffc9474	1.9732804
89	0x3ffab2ac	1.9585776
90	0x3ff7b474	1.9351945
91	0x401af2db	2.4210727
92	0x3fe014b2	1.7506316
93	0x401fc791	2.4965556
94	0x3fc1d539	1.5143195
95	0x401537fa	2.3315415
96	0x3f98482d	1.1897026
97	0x3fdcf669	1.7262698
98	0x406cc6b7	3.6996286
99	0x406224de	3.5335002
100	0x3fe13d08	1.759675
101	0x3fd3f8ff	1.6560363
102	0x404e70b5	3.225629
103	0x3fad5c41	1.3543779
104	0x402425a9	2.5647986
105	0x3ffd3625	1.9782149
106	0x402c7df7	2.6951883
107	0x403ea0bf	2.9785612
108	0x3fdcf1b7	1.7261266
109	0x40632e8d	3.5497162
110	0x4077b52c	3.8704329
111	0x3fd5933a	1.6685555
112	0x40bd10c6	5.9082975
113	0x3fb492de	1.410732
114	0x409004da	4.500592
115	0x4079b59e	3.90171
116	0x40296d82	2.6473088
117	0x400affd7	2.1718652
118	0x401c4ee3	2.4423149
119	0x3f8fb1ce	1.1226137
120	0x3fa60f23	1.2973369
121	0x3ff506be	1.9142683
122	0x3fba6d7d	1.4564663
123	0x4079674d	3.89693
124	0x40235934	2.5523195
125	0x40207a5c	2.5074682
126	0x403f04a6	2.9846587
127	0x3fa4e2d6	1.2881725
